RobotArmMLAgentUnity (step2)/Assets/NNModels/Robotarm-1141871.onnx (onnx, 554549 bytes, 9 tensors)

action_model._continuous_distribution.log_sigma f4 [1, 5]
000000 5b f7 32 c0 dd 02 a1 be 48 ed 28 c0 1f 57 69 be
       -2.7963474 -0.31447497 -2.6394825 -0.2278714
000010 b5 bf 0e be
       -0.13940318

action_model._continuous_distribution.mu.bias f4 [5]
000000 30 f4 eb bb 84 87 ac bd 82 13 b2 3b e4 54 90 3d
       -0.0072007403 -0.08424285 0.0054344544 0.070474416
000010 c4 6b a3 bd
       -0.07979539

action_model._continuous_distribution.mu.weight f4 [5, 256]
000000 9a 2e 12 bc cd b9 43 39 8f 74 43 bb 23 53 ad ba
       -0.0089222435 0.00018665865 -0.0029824113 -0.0013223629
000010 15 33 0b 3b 6a 2c cc 3b 06 8a c9 b9 f4 b3 9d 3c
       0.0021240164 0.0062308805 -0.00038440543 0.019250847
000020 6d b9 f2 3b 45 ce af ba 25 dc 23 3b 5d ad 97 3a
       0.0074073584 -0.0013412914 0.0025003043 0.0011572052
000030 e0 d1 27 ba c1 e6 81 3b 22 e9 3f 3c 00 ab 29 bc
       -0.0006401818 0.0039642756 0.011713298 -0.010355711
000040 90 55 61 3c fc ef de 3b 39 a2 02 bb cc 58 64 ba
       0.01375331 0.0068035107 -0.0019933118 -0.00087107415
000050 f2 00 b3 38 69 45 58 bb a9 2f c7 ba 0a 2e 4b ba
       8.535561e-05 -0.0033000356 -0.0015196699 -0.0007750696
000060 da 51 41 3a be 7e c2 b9 0e 14 b4 3c dc 54 fb 3a
       0.00073745626 -0.00037096994 0.02198222 0.001917507
000070 6a af 03 bb ba 36 4f ba de 5a 54 bb 65 5c 15 bb
       -0.0020093569 -0.0007904578 -0.0032402794 -0.0022790667
000080 55 bd aa 3b 28 2e bb 3c 22 c8 42 3b 85 4d ee 3b
       0.0052105584 0.022849157 0.002972134 0.0072724246
000090 3b ef 8a 3c 09 bf bd ba 42 7e 91 3b 66 29 5c 3b
       0.016959777 -0.0014476489 0.0044401 0.0033594011
0000a0 85 24 1d ba 9f 17 76 3b 9b b0 4f 3c 24 cb 37 3b
       -0.00059945165 0.00375507 0.012676383 0.0028044665
0000b0 45 9a ef 3a 99 54 8b 3b cb 95 8b 3b 04 23 ce bb
       0.0018280229 0.004252028 0.0042598 -0.0062907953
0000c0 04 18 2b bc bd eb 82 bb ba 35 0a bb 19 58 88 3a
       -0.0104427375 -0.0039953873 -0.0021089152 0.0010402232
0000d0 11 4e 3e 3b 8d 42 ff 39 f5 da 9a 3c 8f e4 47 3a
       0.002903823 0.00048686974 0.018903235 0.00076253054
0000e0 ac fd 4d 3b 76 b4 aa 3a f7 ca 8d ba 57 17 44 3b
       0.0031431718 0.0013023752 -0.0010817935 0.0029921138
0000f0 64 21 3d bb bd af 69 3c be df d5 3a 47 83 0e 3c
       -0.0028859014 0.014263091 0.0016317291 0.008698291
000100 ef 5d 25 bb d2 4a 13 3b d3 58 90 ba e5 12 8b bb
       -0.002523299 0.0022475016 -0.00110128 -0.0042441958
000110 3c 2c 01 ba 24 5a 79 3c fc e0 60 3c 26 47 3c bc
       -0.0004927551 0.015219245 0.013725515 -0.0114915725
000120 db b3 b8 bb 1f c6 be 3c ec 8b 75 bc 3c 3d c1 ba
       -0.005636675 0.02328783 -0.014986973 -0.0014742981
000130 e3 c7 76 3c 89 73 4d 3a 9d 85 9c 3c e0 38 02 3b
       0.015062305 0.00078373455 0.01910668 0.0019870326
000140 37 fb 10 3c 9d d0 0c 3b 8f 85 3c bb 77 9a 33 3b
       0.008848957 0.0021486648 -0.002876613 0.00274053
000150 68 bc ce 3a 56 5a 7c 3c 8c c8 a5 3c bd 1d ae 3a
       0.0015772702 0.015402397 0.02023723 0.0013284009
000160 56 68 f8 ba dd f7 1c b9 9a 74 bc 3b 5e 03 30 3b
       -0.0018951993 -0.00014969656 0.0057512047 0.0026857476
000170 94 65 0e bc 40 d0 f1 bb aa 8f 0e bb e3 b9 c5 3b
       -0.00869121 -0.0073795617 -0.002175311 0.0060341223
000180 83 39 58 3c 41 d9 1b 3c 5d 53 75 3c 37 ed 1c bc
       0.013197306 0.009512247 0.014973489 -0.009578041
000190 cf 5b d2 b9 36 b5 08 3a b2 97 79 3a 18 98 56 3b
       -0.00040122724 0.0005214991 0.00095212006 0.0032744464
0001a0 43 3d 5e 3c c6 57 1c ba d6 19 4a 3b 8e af fa b9
       0.013564411 -0.0005964007 0.0030838153 -0.00047814514
0001b0 b5 4d ec ba be 79 1f 3c 41 d9 17 bc 62 f4 01 bb
       -0.001802853 0.009733615 -0.009268106 -0.0019829501
0001c0 30 ce 8c 3b a1 cc 00 bc bc c6 90 3b c8 22 5e bb
       0.0042970404 -0.007861287 0.0044182222 -0.0033895243
0001d0 b9 26 8a 3c 7c 6a b0 3c d1 2c d6 3b 2a 42 15 bc
       0.016864168 0.02153515 0.0065361043 -0.009110013
0001e0 17 a7 cf ba bb 5e 9b bb 22 0f 07 bb 72 16 08 bb
       -0.0015842643 -0.0047415174 -0.0020608385 -0.0020765332
0001f0 62 61 69 3b 18 57 f8 3c ad 4a d9 bb c1 24 53 3c
       0.0035611023 0.030314967 -0.0066312165 0.012887181
000200 41 f7 c4 bc 4f d7 01 3b 01 a7 2f bb 32 c5 da 3a
       -0.024043681 0.0019812172 -0.0026802423 0.0016690849
000210 8c 31 6a 3a 3c 69 fd 3a d2 8a 1d ba ea 17 a9 bb
       0.00089337747 0.001933373 -0.00060097605 -0.0051603215
000220 13 27 55 3b 0c 67 3d 3c a5 44 db 3b 2d 2a 8b ba
       0.003252451 0.011560213 0.0066915327 -0.0010617428
000230 f4 60 0d 3c 21 33 85 bb 5f e5 dc 3a 8f 73 3e 3a
       0.008629072 -0.004064933 0.0016853026 0.00072651444
000240 67 61 53 ba b8 2e bc b9 3c 8f cf 3a c6 63 5f bb
       -0.00080635253 -0.00035892962 0.0015835534 -0.003408657
000250 db a8 83 3c 95 64 a7 39 6c e6 e1 3a 7c 92 2e 3b
       0.016071727 0.00031927662 0.0017234809 0.0026637604
000260 35 35 cd 3c f4 b9 14 3a e7 0b 20 3c ce 7e 0a 3c
       0.025049785 0.0005673461 0.009768463 0.008453084
000270 92 4c bf bb 99 bc a9 bb 89 c1 df 3c e1 6b fb 3c
       -0.0058379853 -0.0051799533 0.027313964 0.03069109
000280 ae 9a 4d bb 40 1f 14 3c 98 bf a7 bb a8 e1 81 3a
       -0.0031372714 0.009040654 -0.0051192753 0.000990917
000290 73 f0 b2 b9 96 ee 8f bb ed f1 94 3c 61 c6 95 bb
       -0.00034129954 -0.0043924553 0.018181765 -0.0045707677
0002a0 dd a8 c3 b9 7d 85 f5 3b 80 b7 a7 3a 36 76 e5 bb
       -0.0003731911 0.0074927197 0.0012795776 -0.007002617
0002b0 ea 52 b5 39 f6 38 61 3a 19 63 00 3c 75 7f dd 3a
       0.00034584786 0.00085915567 0.007836127 0.0016898947
0002c0 87 36 4e 3b 5f 19 0f 3c 57 35 25 3c f9 6e a0 3b
       0.0031465606 0.008734076 0.010083518 0.0048960415
0002d0 81 85 08 3d 92 15 86 bb a5 b4 30 3c b9 a9 01 3a
       0.033330444 -0.004091927 0.0107852565 0.000494625
0002e0 2b eb 30 3c 8b 42 ee 3c 31 5e 8d 3c c6 c8 77 3c
       0.010798256 0.029084465 0.017256828 0.015123552
0002f0 92 75 8f 3b b1 81 b3 3c 60 42 5e bb 4e 3b 26 3b
       0.004378029 0.021912428 -0.0033914074 0.0025364938
000300 7b ea 24 3c 15 96 3c 3a be ee 13 3c b9 ad 16 3c
       0.01006567 0.0007193995 0.009029089 0.009196692
000310 06 91 f1 bb ca 5a 9c 3b 97 49 eb 3a b2 4c 22 bc
       -0.0073720245 0.004771565 0.0017951009 -0.009905981
000320 54 28 0d 3c 70 49 4b 3c ae ad da 3b 4d d2 83 3c
       0.008615572 0.012407646 0.0066735363 0.01609149
000330 83 c0 07 3d 27 0e 59 bc ac 51 d2 3c f6 a3 af ba
       0.033142578 -0.013248003 0.02567371 -0.0013400305
000340 a1 52 66 3c 4e 60 06 3b 2c d7 04 bc ee b6 22 3c
       0.014057786 0.002050418 -0.008107942 0.009931309
000350 6e c9 96 3b c7 d7 11 bb 92 8b da ba 0c 1e 34 3b
       0.004601649 -0.0022253857 -0.0016673675 0.002748373
000360 2a 96 5a ba 85 f8 80 3c e8 89 0e 3b ed 71 a7 ba
       -0.0008338416 0.015743503 0.002174968 -0.0012775041
000370 7e 69 8a b9 b2 c9 53 3b 86 3e 86 3a 54 b3 14 bb
       -0.0002640001 0.0032316265 0.0010242022 -0.0022689896
000380 07 d5 9f 3a 50 1a b8 3a 91 51 fe b9 52 c0 6c 3a
       0.0012194224 0.0014045928 -0.00048507427 0.00090313435
000390 6c 5b 22 bc 2c 3f 66 bb b4 e5 73 ba 13 69 9d 3a
       -0.009909492 -0.0035132868 -0.0009303943 0.0012009464
0003a0 6f b6 b9 ba 13 ea 22 bb bd 94 6a 3c a5 d1 9f ba
       -0.0014168749 -0.0024858757 0.0143176885 -0.0012193216
0003b0 54 93 0c 3c a0 9a af bc 47 bc 97 ba 44 eb 73 3c
       0.008580048 -0.021436036 -0.0011576497 0.014887635
0003c0 cc 37 d8 bb ae ed 2f 3c 82 d3 36 3b 80 95 4b bb
       -0.0065984484 0.01073782 0.0027897065 -0.003106445
0003d0 a7 9d 9f 3c c8 02 f3 b9 e3 a9 22 3c 5d a4 26 3a
       0.019484354 -0.00046350644 0.009928199 0.00063568895
0003e0 4e 0d 7a 3a 4f 7e 1e 3c 7d 94 dd ba 9e 00 fa 3a
       0.0009538726 0.009673669 -0.0016905215 0.001907367
0003f0 0b 8d e1 bb f7 88 ce bb c6 18 99 3b b7 9b b6 39
       -0.0068832687 -0.0063029486 0.0046721427 0.00034829762

network_body.linear_encoder.seq_layers.0.bias f4 [256]
000000 22 83 32 bd ad 8b bd bc 04 81 ce bc bc df a1 bc
       -0.04358209 -0.023137892 -0.025208004 -0.019760005
000010 94 39 a0 bb 46 d3 4c bc da 13 ad 3c 12 b9 8d 3c
       -0.0048896763 -0.012501543 0.02112763 0.017300162
000020 b3 b7 57 bc 48 b4 87 bc 75 97 6f bc 67 6b 1a bd
       -0.013166356 -0.016565457 -0.0146235125 -0.037700083
000030 44 72 14 3b d4 61 b3 bc b9 7c 28 bd f9 32 24 bc
       0.0022651115 -0.021897234 -0.04113457 -0.010021918
000040 bd db 40 bc 29 68 f2 bb a3 3e b7 ba cc 05 6b bc
       -0.01177114 -0.0073976708 -0.0013980459 -0.014344644
000050 03 2d 76 bc 6c 1b 61 bc 9c 77 cd 3b 4e a8 fb 3a
       -0.01502538 -0.013739448 0.006270362 0.0019199939
000060 77 e2 a1 bc 42 71 a1 bc 89 a2 05 bd e4 35 b4 39
       -0.019761307 -0.019707326 -0.03262571 0.00034372427
000070 3b 60 3a ba 9d 00 8c 3c 1a f8 55 3d 14 5b 22 bc
       -0.00071096764 0.017090136 0.05223856 -0.00990941
000080 f8 14 ef bc 21 d3 09 bc cf 98 99 bb 17 36 a0 bc
       -0.029184803 -0.008412153 -0.0046874057 -0.019557042
000090 59 f0 52 bc 6f 5f 8a 3c c6 bb b9 3b 28 1b 97 3c
       -0.012874686 0.01689121 0.0056681363 0.018445566
0000a0 93 c3 01 3c 5f 30 a4 3b 2d 53 8c 3c 95 96 48 3c
       0.007920164 0.005010649 0.017129505 0.012242933
0000b0 52 61 a1 3c d3 0b 5d bc 5c 04 11 3d 26 00 7d bb
       0.019699726 -0.013491589 0.035404548 -0.0038604825
0000c0 e4 9e d8 bb bd c8 9f bc 7c 3c 7b 3b cf 9b 0a 3c
       -0.006610738 -0.0195049 0.0038335612 0.008459999
0000d0 7a 8a 80 ba ca 5c 0c bd 3f 01 88 bc d4 4e e3 bc
       -0.0009806894 -0.034268178 -0.016602157 -0.02774755
0000e0 b5 21 35 bc e9 76 08 bb 00 6f ab bc c4 68 ae 3b
       -0.0110554 -0.002082283 -0.020926952 0.0053225476
0000f0 fa 9f 49 bd 45 7d 44 3b b9 04 11 bc 23 35 0f bc
       -0.04922483 0.0029981893 -0.008851224 -0.008740696
000100 69 d3 34 bb 91 08 44 bd 74 10 86 bb 6c 0c 57 3c
       -0.002759183 -0.047859732 -0.004091317 0.01312552
000110 36 5f 04 bd 84 f0 cd 3b fb 2b 02 bd 76 c8 3f bb
       -0.032317363 0.006284775 -0.031780224 -0.002926377
000120 3e 03 4c bb 02 9b 8b 3b 61 ef 91 bb dd 2f 87 bc
       -0.0031129862 0.0042604217 -0.004453585 -0.016502315
000130 e6 e9 fa bb f8 37 a3 bb c5 a2 2b 3b f3 61 b7 bc
       -0.0076572774 -0.004981037 0.0026189547 -0.022385573
000140 1a 0a 82 bb 3d 8b 2c bc 1e c8 fd 3a 33 45 f2 3b
       -0.0039684894 -0.010531244 0.0019362008 0.007393503
000150 02 2a d5 bb 85 09 29 3c c5 16 4d 3c eb e7 9d bc
       -0.006505252 0.010317211 0.012517636 -0.019275626
000160 8e 2c 0d 3d eb 04 c6 3b 36 a7 0a b9 c2 79 11 bc
       0.03446632 0.0060430667 -0.00013222996 -0.008879127
000170 6a 81 bb bb b2 c4 a2 b8 22 4e d1 3b 29 65 de bc
       -0.0057222145 -7.761399e-05 0.006387488 -0.027147846
000180 a9 b9 29 bd de ec 52 bb c9 57 f0 3b 17 7b ad 39
       -0.041436825 -0.003218464 0.0073346836 0.0003308884
000190 59 7a 06 3c c0 2d 80 3b 65 93 ab bc 66 b1 55 bc
       0.008207881 0.003911704 -0.020944307 -0.013042783
0001a0 74 31 07 bc 03 91 98 3b 36 20 28 3c 5d 20 c1 3c
       -0.008251537 0.0046559586 0.010261586 0.023575002
0001b0 60 76 88 3c cf 98 ad bb 7f 43 69 3b c0 92 c6 3c
       0.016658008 -0.005297757 0.003559321 0.024239898
0001c0 59 27 f8 3c 4b d4 d4 3c 45 22 a3 3a b0 3d ec 3c
       0.0302922 0.025980135 0.0012446126 0.028838009
0001d0 de 9e f1 bb 83 27 f6 3b be 9a 96 3c c6 cb 95 bb
       -0.007373675 0.0075120344 0.018384334 -0.004571411
0001e0 a5 92 9d 3c 67 cc 1a bb 9e 68 82 bb 8b ed 14 bd
       0.019234965 -0.0023620368 -0.0039797565 -0.03635935
0001f0 53 a6 32 bc 62 d7 7c bc 43 6e dc 3c 58 00 6a bc
       -0.010903913 -0.015432211 0.026908046 -0.0142823085
000200 14 6e a6 3c dd 0f 23 bb 46 93 79 bb ab 99 14 bb
       0.020316161 -0.0024881281 -0.0038082167 -0.00226746
000210 80 fa 64 bb 6b 6f 65 bc 17 e0 37 bb 1c 0f 8e bc
       -0.0034939349 -0.014003615 -0.0028057152 -0.01734119
000220 f1 44 6b 3c 4e 25 78 bb 0b 8e 17 bb 78 73 d7 bc
       0.014359699 -0.0037864032 -0.0023125436 -0.026300177
000230 59 3a a6 bc 3d 25 04 bc 8c 7d d4 ba d6 c7 b8 3b
       -0.020291494 -0.008065519 -0.0016211732 0.0056390567
000240 04 6a 45 bb e8 0f 1c ba 84 15 ad bc 37 dd 62 3b
       -0.0030123005 -0.0005953298 -0.021128424 0.0034616718
000250 44 39 17 bc 0b f6 8c bb 17 91 01 bb bf 75 28 bb
       -0.009229962 -0.0043017915 -0.0019770318 -0.0025704948
000260 a8 c8 69 3c ad 27 c7 bc 81 ea 3b bc d7 b7 7c 3b
       0.014269032 -0.024310911 -0.011469484 0.0038561726
000270 71 af 1a bc fd c3 f8 3c f5 cb b8 bc 65 6c 70 3c
       -0.009441243 0.030366892 -0.022558192 0.014674281
000280 69 de 27 bb 11 d5 fe bb 56 7e 19 3a 31 55 ce 3c
       -0.0025614745 -0.0077768643 0.00058553123 0.025187107
000290 ed 3a 79 bc 1e 18 a6 bb 2a 02 a3 bc 19 03 d9 3b
       -0.015211803 -0.005068793 -0.019898493 0.0066226837
0002a0 d8 66 f9 3c aa 15 9c bc ee e5 41 bb 55 b1 62 3c
       0.030444548 -0.019053299 -0.0029586512 0.013836225
0002b0 70 a1 00 bb 47 60 40 bc 25 d2 aa bc 7e cf 1e 3b
       -0.0019627474 -0.011741704 -0.020852158 0.0024232562
0002c0 28 a0 6a bb fe a2 b5 bb 58 81 27 3c ec a4 15 bd
       -0.0035801027 -0.005543112 0.010223709 -0.036534235
0002d0 2f 5c 1e 3b 18 8c 5e 3c 4d b1 13 bc 0b 68 92 3c
       0.0024163832 0.013583206 -0.00901444 0.017871877
0002e0 e8 8d 26 bb e9 a2 c3 3c 9c ff 59 bc df 54 7f bc
       -0.0025414173 0.023881393 -0.013305571 -0.0155842
0002f0 91 e2 26 bd 16 cc e1 bc 7e 14 01 bc 9e 7d 01 bd
       -0.040743414 -0.027563136 -0.007878421 -0.03161394
000300 c4 36 78 bc a1 36 28 bc a2 c3 68 3c 67 2b 99 bc
       -0.015149776 -0.010266931 0.014206799 -0.018697454
000310 07 6f 93 ba bf 4c 9c 3c 22 67 44 bc 93 50 b4 3b
       -0.0011248299 0.019079564 -0.011987479 0.0055027693
000320 93 82 29 bc 59 bc 0b 3c fb 8f a8 3b 1a bc af 3d
       -0.010346073 0.008528792 0.005144117 0.085807994
000330 e2 f5 a1 bb 4f f7 00 3c 4d 21 ab bb df f3 75 bc
       -0.0049426416 0.007871463 -0.0052224756 -0.015011757
000340 d1 8e e9 bc e4 b1 81 bb ee b9 4c 3b a4 d8 f0 bc
       -0.028510483 -0.003957974 0.0031238752 -0.029400177
000350 d5 0a 7c bd 5b 45 01 3b 74 f4 83 3b e4 ff 34 bd
       -0.061533768 0.0019725177 0.004026944 -0.04418935
000360 b5 f3 78 3b 07 ca 90 bb f9 a4 49 bc 97 ef f9 3c
       0.0037987058 -0.004418615 -0.012307399 0.030509753
000370 49 e5 57 3b 05 14 1d 3c c9 44 e8 bb d4 3a 55 3c
       0.003294306 0.009587293 -0.007088278 0.013014514
000380 ca ab 39 bc eb 3b 72 3c fe 04 cd ba 9e a0 29 bd
       -0.011332462 0.014784793 -0.0015641747 -0.041412942
000390 d5 12 b9 3b 05 2d 95 bb 8b f4 fe bb ee f2 d4 3c
       0.005647997 -0.004552486 -0.0077806166 0.025994744
0003a0 09 73 bc 3b 92 83 2d 3d f2 69 01 bc 8d 58 af 3c
       0.005751018 0.042361803 -0.0078987945 0.021404529
0003b0 01 42 04 3b 1a 51 19 bc be b4 d7 3b 4a 4f 58 bb
       0.0020180943 -0.009357715 0.0065828254 -0.0033006244
0003c0 9a 76 0b bd 9d 34 d4 3a e8 7a 95 bc b9 30 8d bc
       -0.034048654 0.0016189996 -0.018247083 -0.017235147
0003d0 9f 0d 15 ba 27 a8 d3 bd 8a 7f 60 bd 1b 5c 9c 3c
       -0.00056859286 -0.10334807 -0.05480913 0.019086888
0003e0 30 cb e1 3c 61 cd 90 bb 33 dc 13 3c 62 3c 03 bd
       0.027562708 -0.0044190143 0.009024668 -0.032040007
0003f0 72 28 ef ba a9 a6 f8 3b c8 94 20 bc 4b 11 09 bc
       -0.0018246307 0.007588227 -0.009801097 -0.008365939

network_body.linear_encoder.seq_layers.0.weight f4 [256, 19]
000000 85 a5 38 be 78 47 8d bd 14 27 4a 3e 75 da a2 be
       -0.1803189 -0.06898397 0.1974147 -0.31807294
000010 f5 7c 7c 3e a7 3c d3 3d aa 95 1a 3f 58 0d 21 3c
       0.24657042 0.10314303 0.6038462 0.009829842
000020 31 c4 10 be f4 42 da bd 84 a6 d3 bd 0c d1 e4 3c
       -0.14137341 -0.106573015 -0.10334495 0.027931713
000030 5f 92 2a 3e d3 3e 21 3e 2e b0 ca b8 9d 5e 4d be
       0.16657399 0.15746622 -9.6649266e-05 -0.20055623
000040 1f 61 4e 3c a7 34 4e bd 37 7e 13 3e 74 5c 26 3e
       0.012596398 -0.050343182 0.14403616 0.16246206
000050 5e 0a a2 3d 28 d7 45 3e 72 b1 cc bd 91 ae 85 3d
       0.07912134 0.19320357 -0.099947825 0.065274365
000060 6e 09 10 3a ef c0 ac be 84 2e d1 be da b8 97 3e
       0.0005494569 -0.33740947 -0.408558 0.29633218
000070 58 9f 96 3d 27 b6 2f be aa 7a c2 bd c4 b4 f5 be
       0.07354611 -0.1715933 -0.094960526 -0.47989476
000080 62 a2 08 3f 91 c1 a5 be a9 88 14 3e 04 70 83 be
       0.53372777 -0.32374242 0.14505257 -0.256714
000090 9b 1d 3c 3e 46 3c 1b 3d 40 ea 03 be 0b b4 22 bd
       0.18370669 0.037899278 -0.12882328 -0.039722484
0000a0 ae d0 34 bd 09 ec b4 bd e0 cd cb 3d 2f fc 23 be
       -0.044144325 -0.08834083 0.09951377 -0.16014169
0000b0 43 29 82 bc ea 60 83 3d b1 c6 17 3e 5b 97 48 3e
       -0.015888816 0.06414969 0.14821889 0.19588988
0000c0 50 05 10 3e b7 8b e8 bd d5 29 a5 3e 4d 05 56 be
       0.14064527 -0.113547735 0.32258478 -0.2090046
0000d0 13 0a 45 be 41 09 f2 bd 3c 56 ca be 45 0d 45 be
       -0.19242124 -0.11818171 -0.39518917 -0.19243343
0000e0 a0 1b dc 3d e6 40 09 3e dd 6e 5a be 09 6e a9 be
       0.107474566 0.13403663 -0.21331353 -0.33091763
0000f0 76 59 ae be 72 21 c2 be 8c 31 c0 3d 25 cd 09 3b
       -0.34052628 -0.37916142 0.0938445 0.0021026817
000100 cc b7 80 3e 6b 8c 99 bb 36 0e 83 be 7e 53 b0 3e
       0.25140226 -0.0046859286 -0.2559678 0.344387
000110 99 fc a3 be b3 30 95 3d 9d 4c ee 3d 56 f4 90 3e
       -0.32028654 0.07284679 0.116357066 0.28311414
000120 36 16 b4 be b6 8b 1c be af db 76 3e 53 65 bf bd
       -0.35173196 -0.1528767 0.2410724 -0.09345498
000130 4f 02 33 3e 90 c8 aa bd 98 1b 80 be a0 fe ce 3d
       0.1748135 -0.083390355 -0.25021052 0.101071596
000140 aa 87 b0 be 82 4b b7 3d 59 82 12 be 97 ea 0c bf
       -0.34478503 0.08949949 -0.14307536 -0.55045456
000150 da 8b de bd 68 da 08 3e 78 2b ed bc 72 7d 57 3c
       -0.10866518 0.13364565 -0.028951392 0.013152467
000160 72 02 e7 be 4c 31 b5 be 1d 34 75 3e 75 da d4 bd
       -0.45119053 -0.35389173 0.23945661 -0.1039323
000170 2b 5f bd be c9 85 4a 3e b8 fd 36 be 5f 70 86 be
       -0.3698667 0.19777597 -0.17870224 -0.26257607
000180 5d b5 7c bd 0e 15 8b bd 75 69 d0 bd 7b 58 45 be
       -0.0616964 -0.06791125 -0.10176364 -0.19272034
000190 30 d8 90 bd 59 0b 2f 3b c9 1b cc bd b5 91 0c 3f
       -0.070724845 0.0026709645 -0.09966237 0.5490983
0001a0 83 52 65 3d 8f f3 82 3c b8 2d 73 3e 33 e7 c6 3e
       0.055986892 0.015985278 0.23747909 0.38848266
0001b0 0d 93 04 3e da 64 65 bd d1 6a c2 be 2e 3b 6f bd
       0.1294672 -0.056004383 -0.3797212 -0.058406048
0001c0 c8 86 e4 be fe 26 55 be f2 ed e1 3d 91 56 d4 bd
       -0.4463408 -0.20815656 0.110317126 -0.10368074
0001d0 43 6f 18 3e 13 f0 74 3e 92 8a 8e be 3e 00 92 3e
       0.14886193 0.23919706 -0.27840096 0.2851581
0001e0 9a 72 9d be 56 94 9b be 0b 4e 0d 3e 78 b5 42 3e
       -0.30751497 -0.3038661 0.13799302 0.19014537
0001f0 7f dc 34 3e a8 63 6f 3e 32 74 f1 3d e8 9f 51 3e
       0.17662238 0.2337786 0.117897406 0.20471156
000200 65 78 87 be 5c 9f 2e be 04 04 59 be aa 68 29 bf
       -0.2645904 -0.17052978 -0.21192938 -0.6617533
000210 37 27 4f bc 1e da 83 3d fb a0 13 3f 2a 88 03 3e
       -0.012643627 0.06438087 0.5766751 0.12844911
000220 54 d5 14 3e 34 31 b3 3d c2 fa cc be 52 50 86 3e
       0.14534503 0.08749619 -0.40035063 0.26233155
000230 74 db bc bd 91 12 0a bd 1e 75 b8 be e1 70 87 be
       -0.09221545 -0.033709113 -0.36026853 -0.26453307
000240 79 01 b1 3e 54 9d c3 3d 03 fc c0 3e 9b 60 e7 3e
       0.34571436 0.09551492 0.3769227 0.45190892
000250 3c f9 41 be 16 ec 4e 3e ec 35 bf bd da a4 84 be
       -0.18942732 0.20207247 -0.09336457 -0.25907022
000260 dc df a1 3e 16 8e 2f 3e 29 32 b9 3e 22 b4 6a 3d
       0.31616104 0.17144045 0.36171082 0.057300694
000270 11 8e 16 3e 26 56 bf bd 7d 29 d7 bd 04 e9 fe 3d
       0.14702632 -0.093426034 -0.1050596 0.12446788
000280 0a 6d d2 3d 2c c2 18 be bd da 13 be 47 4b d6 3d
       0.10274704 -0.1491782 -0.14438911 0.10463577
000290 9f 49 36 be 66 ee 06 be 1e 78 c9 be e7 7a 2d 3d
       -0.17801522 -0.1317688 -0.39349455 0.042353537
0002a0 bb 81 17 bf 63 21 55 3e 2e 22 53 be 3a 48 f7 bd
       -0.5918233 0.20813517 -0.20618507 -0.12074323
0002b0 0e c4 94 be f1 a7 42 be 47 8f 6d be 76 59 21 be
       -0.29055828 -0.19009377 -0.23199187 -0.15756783
0002c0 30 25 93 be d3 e9 a6 bd f9 54 84 3d 82 62 27 3e
       -0.2873931 -0.08150067 0.0646152 0.16346171
0002d0 7b 92 90 3c 6c 27 89 be b9 a9 c1 ba ef d3 12 be
       0.017647972 -0.2678789 -0.0014775313 -0.14338659
0002e0 c6 ee 99 3e 61 6e 8a 3d c2 6a 62 be 54 ae 89 be
       0.30064982 0.06759334 -0.22111037 -0.26890814
0002f0 99 8d 71 3e 90 59 57 be 27 07 dc 3d 38 a2 e9 bd
       0.23589171 -0.21030259 0.10743552 -0.11407894
000300 a4 28 62 3e f4 8e 47 be f5 29 9f bc b9 35 5f 3e
       0.22085816 -0.19488126 -0.019429186 0.21797837
000310 ea b5 98 bd 74 90 35 3b 9f fb 00 3f 30 24 9e bd
       -0.07456572 0.002770451 0.50383943 -0.07721746
000320 66 23 70 3e f2 10 57 bd e2 20 cb 3e 44 49 86 be
       0.23451003 -0.052506395 0.39673525 -0.26227772
000330 22 e5 38 3e ff 56 34 be f9 2e 59 3e 4a 92 ac 3e
       0.18056157 -0.17611311 0.21209325 0.3370536
000340 87 4c cb 3e f6 18 cc be 13 f7 d3 3e 69 6e 99 3e
       0.39706823 -0.39862794 0.4139944 0.2996705
000350 c1 49 12 be 56 a0 1d 3e 89 57 87 3d 19 d4 36 3e
       -0.14285947 0.15393195 0.06608493 0.17854346
000360 64 4e d7 bc 02 f9 6b 3e 84 56 9d bb 12 db 81 be
       -0.026282497 0.23044208 -0.004801573 -0.2536245
000370 67 63 cb bd 3a c0 30 3e 92 62 45 be d0 f8 53 3c
       -0.09931069 0.17260829 -0.19275883 0.0129377395
000380 ee 34 07 be 13 35 d7 3e ba dd 7c bd 24 d3 6e be
       -0.13203785 0.4203268 -0.061734892 -0.23322731
000390 2e 4b 01 3d 19 b3 83 bd 3c 15 fd 3c 41 13 2f be
       0.031565838 -0.064306445 0.030893914 -0.17097189
0003a0 47 aa da 3e 5d 2a c3 be 57 56 ed be 11 7b 50 be
       0.42708036 -0.38118258 -0.46354935 -0.20359446
0003b0 4f cf 19 3e 02 37 ae be ef 0d 5e bd b7 19 3d bc
       0.15020488 -0.34026343 -0.054212507 -0.011541775
0003c0 f6 4e 5b 3e c5 69 a9 3e 70 ea c7 3e 6c e6 aa be
       0.2141684 0.33088508 0.3904605 -0.33378923
0003d0 ec 27 53 3d af 99 26 be 40 15 76 3e fe ff ba be
       0.051551744 -0.16269563 0.24031544 -0.36523432
0003e0 8c f8 0c 3e 0a d1 1b 3e ca a7 ed be 87 78 0a 3e
       0.13766688 0.15216461 -0.46417075 0.1352254
0003f0 1a 0e e2 bd b6 cc 85 bd 3a 02 4c 3d 25 f9 23 be
       -0.11037846 -0.06533186 0.04980681 -0.1601301

network_body.linear_encoder.seq_layers.2.bias f4 [256]
000000 86 d2 13 3b 31 81 35 bd d1 52 04 bc f1 23 80 3c
       0.0022555902 -0.04431266 -0.008076386 0.015642138
000010 9a d1 05 bd b0 e2 11 3c 71 6f 63 3c ec b4 48 39
       -0.032670595 0.008904144 0.01388155 0.00019140885
000020 0f c3 c0 3b e9 b8 00 bd 8c 8c 10 bd 05 44 9c bc
       0.005882628 -0.031426344 -0.035290286 -0.019075403
000030 a1 cb 39 ba 00 1c 0d 3c d6 98 f7 bc 35 08 ce bc
       -0.0007087533 0.008612633 -0.030224245 -0.025150398
000040 6e 28 0a bd 2d 08 44 bd 00 a0 29 bd 93 3a 42 3b
       -0.033729963 -0.04785936 -0.041412354 0.0029636964
000050 4b 5e c8 3b ef e5 d0 39 b4 b9 3c 3b 13 08 28 bd
       0.006114756 0.00039844165 0.002879721 -0.041023325
000060 1c f0 73 3a e9 c2 31 bd b5 67 9d 3c 77 a5 3c bd
       0.00093054934 -0.04339877 0.01921449 -0.046056237
000070 34 a8 90 bc 1b 46 59 bd 9f 7f 29 bd 3c 46 8a 3b
       -0.01765833 -0.053045373 -0.041381475 0.0042197984
000080 dc 40 56 bd 28 8e 6a bd 57 dd e5 3b 82 23 cf 3b
       -0.05230795 -0.057264477 0.007014911 0.0063213715
000090 f9 06 b4 3b ea 9f 09 3c c1 21 a1 bc 1f 61 5d ba
       0.0054939953 0.008399943 -0.019669415 -0.0008444953
0000a0 7e 5f a8 3c 0e 50 1b bd fa 0e 06 bd 8e bf 61 3b
       0.020553347 -0.037918143 -0.032729127 0.003444645
0000b0 15 ec 5e bb 98 03 13 bb fc d9 39 bc bb 9a 44 bb
       -0.0034015228 -0.0022432562 -0.011343475 -0.0029999453
0000c0 97 da 27 bd 16 e2 69 3c 10 cc 9b 3c 43 30 3b bd
       -0.040979948 0.0142750945 0.019018203 -0.045700323
0000d0 eb 4a 66 bd 71 f9 8a bc b6 50 a1 3b 86 6b 53 3c
       -0.05622379 -0.016964646 0.0049229516 0.012904054
0000e0 dd 92 18 bd 3e 9e 8e 3b 87 3d 2f 3c 4d f9 52 bd
       -0.037249435 0.00435236 0.010695822 -0.051507283
0000f0 e4 9d 8e 3c 51 4c 4f 3c 80 0f 2a bd 54 bd 65 ba
       0.017409272 0.012652473 -0.04151869 -0.0008763869
000100 cc d6 b2 3a a1 de 92 bc ca 48 a8 bc c1 31 59 bc
       0.0013644337 -0.017928423 -0.020542521 -0.013256491
000110 1e 45 4f bd 27 9d d8 bc 35 18 14 bd be d6 96 3c
       -0.050603025 -0.026442124 -0.036155898 0.018412944
000120 9d 23 75 3b 57 24 b8 3b 10 17 72 3a a2 e4 dd bc
       0.003740526 0.0056195664 0.0009235004 -0.02708656
000130 b2 e7 43 3c b7 7d 8a 3c 27 69 b3 bc 52 45 bd 3b
       0.011957096 0.016905649 -0.021900726 0.005776086
000140 a3 67 c7 bb f6 76 40 bd a9 0e ac 3b 27 6f 52 bd
       -0.0060853525 -0.04698845 0.005250771 -0.051375534
000150 8b a2 7b bb 8b f3 ce bb d4 55 06 bd 8b 96 17 bd
       -0.0038396444 -0.0063156537 -0.032796696 -0.037008803
000160 b0 5b bc bb 75 0b c7 bc 98 cb 0b bc 44 a1 07 bd
       -0.0057482347 -0.024297455 -0.008532427 -0.03311278
000170 61 83 4f bd 85 17 02 3b bd 84 13 bd 63 d9 3b bb
       -0.050662402 0.0019850445 -0.03601526 -0.0028663508
000180 46 32 5a bc 3a 76 02 3c 5c 62 e9 3a 57 d0 bb bc
       -0.01331765 0.007962758 0.0017805803 -0.022926493
000190 27 d9 48 bb 2d f1 11 bc 88 8e 23 bd 38 56 ed 3b
       -0.003064701 -0.008907598 -0.03993085 0.007242944
0001a0 53 3d 83 3b b3 2b 30 3b e5 63 8d 3a fa e7 cb ba
       0.004005113 0.0026881516 0.0010787217 -0.0015556805
0001b0 11 8b 4b 3c 0b 6e d3 39 10 38 f9 3b 67 3d 99 bc
       0.012423293 0.00040327045 0.00760556 -0.018706037
0001c0 9c 14 3f bd 54 97 c7 3b 58 0e 6d 3c ff d2 28 bc
       -0.046650514 0.0060910378 0.014468752 -0.010304212
0001d0 e0 ce 04 bd 56 5a 4a bd 98 2a 1e bd de 7d 12 bd
       -0.032423854 -0.049402557 -0.03861484 -0.035764568
0001e0 1a 19 2b bd 63 4c 2a bd 7e a6 21 bd a8 14 1d bd
       -0.041771986 -0.041576754 -0.03946542 -0.038349777
0001f0 7f 08 89 bb d4 c7 71 bc 24 ac f5 3a 0c 21 01 3c
       -0.004181921 -0.014757115 0.0018743319 0.007881414
000200 27 62 88 3b b6 b2 30 bd f5 95 2c bc 4d 0d ad bb
       0.0041620913 -0.043139182 -0.010533799 -0.0052811266
000210 20 7a 2b bd 95 d0 15 3c 1f 69 19 bd 47 32 d3 bb
       -0.041864514 0.009143968 -0.037453767 -0.0064452025
000220 6a 60 ec 3a e8 64 18 bd aa 48 92 3a ec ee 2c 3c
       0.0018034105 -0.037205607 0.0011160572 0.01055501
000230 c6 de f1 3b 89 83 ad bc 49 97 2e bd 31 f4 1f bd
       0.007381293 -0.021180885 -0.042624746 -0.03905124
000240 3b da 54 bc bd e5 3b bc fe 64 1d bd d0 55 6d 3c
       -0.012991483 -0.011468348 -0.03842639 0.014485791
000250 fb 2c de ba 4d 79 0e 3c 48 3f a7 bc 75 b8 f8 3b
       -0.0016950661 0.008695913 -0.020415917 0.0075903484
000260 9e d0 8d bc 55 fc 2d bd 81 dd 8f bc de f1 0c 3b
       -0.01731139 -0.04247697 -0.017561676 0.0021506469
000270 a7 45 3d bd f0 36 df bb 9a 70 2f bd f4 0b 3c bd
       -0.046209004 -0.006811969 -0.042831995 -0.045909837
000280 66 ee 3d 3c 2e c4 9a bb 91 dc 0d bd 23 0d 1e bd
       0.011592483 -0.0047230935 -0.034634177 -0.038586747
000290 8b 8e 88 3c 35 a8 d4 bc ef 15 b7 3b 1a be bf 3b
       0.016669532 -0.025959114 0.0055873315 0.0058515193
0002a0 4a 44 03 3c 58 9d 25 bd 63 26 a2 3b 56 cf 08 3b
       0.008011887 -0.040433258 0.0049484237 0.0020875535
0002b0 22 7f 00 bd 28 81 3d bd 4f 5c 3f 3b 86 19 e0 bc
       -0.031371243 -0.04626575 0.0029199307 -0.02735592
0002c0 79 5e 44 bd 53 7e 2b 3c 04 20 eb bc dc bd 2c bd
       -0.04794166 0.01046713 -0.02870179 -0.04217325
0002d0 ac cb 3f bd 95 89 79 3c 26 13 3f 39 d6 88 6e 3c
       -0.046825096 0.015230556 0.00018222313 0.014558991
0002e0 2d 4b a3 bb 80 db 49 bd 9f fd 12 bd f9 79 2c bd
       -0.004983327 -0.049281597 -0.035886403 -0.04210851
0002f0 ff c0 af 3b bc 83 23 bd bb b1 fc bc 3a 53 8e 3b
       0.005363583 -0.039920554 -0.030846467 0.0043434175
000300 bf b5 3e 3c 5c 8d f9 3b ba c1 23 bd ea dd 49 bd
       0.011640011 0.0076157283 -0.039979674 -0.0492839
000310 c0 be 08 3d 3f d8 5a 3c 2f 41 82 bc 1f 11 8c 3c
       0.03338504 0.013357221 -0.015900223 0.017098008
000320 7e ed 60 bc 83 aa 0f bb 54 0f 46 bc 8a 12 e7 bc
       -0.013728498 -0.0021921701 -0.012088615 -0.028207082
000330 99 e1 12 bb 10 f3 40 bc 46 b9 57 3c 3f f4 e3 3a
       -0.0022412299 -0.011776701 0.013166731 0.0017391517
000340 de 2b 0b bd 04 16 14 bd 08 91 5c bc 8d 0c fc 3b
       -0.033977382 -0.03615381 -0.0134623125 0.007691926
000350 67 80 53 bd f4 83 67 3c 04 c5 83 bc 5f 50 b4 3c
       -0.051636126 0.014130581 -0.016085155 0.02201098
000360 90 61 47 bd 11 12 39 bd 6d f2 30 bd 59 6a 72 bb
       -0.048677027 -0.045183245 -0.043199945 -0.0036989658
000370 2b 9d 20 bd 07 2a 2b bd 50 92 ee 3c e2 d5 cb 3b
       -0.039212387 -0.041788127 0.029122502 0.006220565
000380 9f 83 03 3c 3c 37 fc 3a dd e3 0b bd e8 3c 15 3b
       0.008026986 0.0019242535 -0.034152854 0.0022771899
000390 c5 27 d6 3a 28 2e 46 bd 4f 06 b5 bc 23 de 0d bd
       0.0016338757 -0.04838386 -0.022097735 -0.034635674
0003a0 c2 c3 5c bd d3 8c a9 39 ca 56 47 bd ad 4c 4f 3b
       -0.053897627 0.00032339114 -0.048666753 0.0031631396
0003b0 18 31 d7 b9 45 72 b9 bc 93 97 48 bd 5f 8f 96 3c
       -0.00041044573 -0.022637496 -0.048972677 0.018378912
0003c0 27 cb d5 bc 73 6a d1 ba 85 6d 44 bd d6 c3 93 3b
       -0.026097847 -0.0015977159 -0.04795601 0.0045094294
0003d0 db 2d 2f 3c 69 01 e4 bc 31 c7 e3 3b c3 74 4f bd
       0.010692085 -0.027832704 0.0069512357 -0.050648462
0003e0 0c a2 f8 bb cd 27 f9 3b 3f 1f 8e bc b2 c3 32 3c
       -0.007587677 0.0076036216 -0.017348884 0.010910915
0003f0 1b f5 25 bd 10 29 58 bd e9 e5 5d 3b 75 de ac bc
       -0.040516954 -0.052773535 0.003385896 -0.02110217

network_body.linear_encoder.seq_layers.2.weight f4 [256, 256]
000000 1b 47 64 3d 72 57 05 be b7 92 14 3c e0 4f c7 bc
       0.055731874 -0.13021639 0.009068183 -0.02433008
000010 7b ed c7 3d cc 80 08 bc 20 ee 8f bd 6b 39 83 bd
       0.09762093 -0.008331489 -0.070278406 -0.06407436
000020 3f d7 f8 bc 22 66 0d 3d 5a fa 4d 3d 5d ac 99 bd
       -0.030376075 0.03452123 0.050287582 -0.07503579
000030 57 9c d3 3a 2e d4 8e bd 69 40 7d ba 59 9d 8b bd
       0.0016144615 -0.06974064 -0.0009660782 -0.06817121
000040 42 9e 65 bd e3 a5 79 3c c7 02 8b bd 17 7d 5e 3d
       -0.05605913 0.015237304 -0.06787639 0.054318514
000050 56 f4 96 3d 35 6e 99 3d de cf bc bb 35 2b 27 3d
       0.07370822 0.074917234 -0.0057620844 0.04081269
000060 7b 72 5f 3d 4c 4b cb bc ce b2 69 bd 7f cc 86 3d
       0.054552536 -0.024816178 -0.057055287 0.06581973
000070 18 89 8e 3d 54 ae 8c 3d 93 72 8f bd d6 aa 94 3d
       0.06959742 0.06869188 -0.07004275 0.07259147
000080 1d 8d 02 bd 06 3f 1d 3e 96 33 bc 3c 30 ce 11 bc
       -0.031872857 0.15356073 0.022973817 -0.008899257
000090 2d af 62 3d ef c8 21 bd a2 4a da 3b 86 83 95 bc
       0.055342842 -0.039498266 0.006661729 -0.018251192
0000a0 e7 11 b8 3c 45 04 4f 3d 06 fe 16 3e ee 0a c2 3d
       0.022469474 0.05054118 0.1474534 0.09474741
0000b0 f0 68 d6 bc a1 89 df bc 7c d9 de bc 24 47 85 3d
       -0.026173085 -0.027287306 -0.027203314 0.065077096
0000c0 ff 6e c4 bd 89 98 cd 3d 1f 4e 9d 3d 93 f5 32 be
       -0.09591483 0.100388594 0.07680916 -0.17476492
0000d0 b0 8d 60 bd 8a 2c 1f bd 4b e2 ac 3d e1 0d 82 ba
       -0.054822624 -0.038860835 0.084415995 -0.0009922349
0000e0 8c e3 d4 3b d8 07 81 3d b7 cd 1b bc b5 25 89 3d
       0.0064968523 0.06300324 -0.009509495 0.06696645
0000f0 a4 25 41 bc e6 5d 89 bd 99 15 d6 bd ba 05 0b bc
       -0.011788759 -0.06707363 -0.10453338 -0.008485252
000100 01 f6 5f 3c c2 36 95 3c 13 70 61 bd 4e e1 26 3d
       0.013669492 0.018214587 -0.055038523 0.04074221
000110 b7 45 41 bc 0a 21 91 bc 72 25 f3 bd 11 a1 b1 3b
       -0.0117964065 -0.01771595 -0.118723765 0.005420812
000120 41 18 83 bb 49 a3 99 3c d0 7a 2c ba b5 53 8b 3d
       -0.004000694 0.018754618 -0.000657958 0.06803075
000130 68 da 24 39 c2 03 84 bd 04 e0 27 bc 99 cc ab 3c
       0.00015721621 -0.06446029 -0.010246281 0.020971583
000140 5a 7d 7d bd 8e 3e 47 3c c8 17 e9 bd 34 36 d5 bc
       -0.061887123 0.01216091 -0.11381489 -0.026026823
000150 ec 7d 1c 3d 2e 82 23 3d d8 db cf 3c c4 79 a4 3d
       0.038206026 0.03991907 0.025373384 0.080310374
000160 71 10 1a 3d e1 11 c3 3d 60 de 56 ba 72 89 dd bd
       0.037613336 0.095248945 -0.00081965886 -0.10817231
000170 08 6d 48 3d eb a1 09 3d 14 ab c4 bc 16 2a a2 bd
       0.048932105 0.033601683 -0.024007358 -0.079181835
000180 22 02 df 3c 40 27 75 bd 9e cf 0d bb be 45 88 3d
       0.027222697 -0.059851885 -0.0021638642 0.06653927
000190 83 75 9e bd a5 45 68 3d 9f 47 43 3d 40 7e 79 bd
       -0.07737257 0.056707043 0.047675725 -0.060911417
0001a0 b6 61 03 3d fe 98 80 3d 1d 4c e9 ba 13 ad 71 3d
       0.032075606 0.06279181 -0.0017799173 0.059002947
0001b0 b5 9e 1e 3d b8 ca 0e bd a1 5c 87 3d 89 28 70 bd
       0.038725574 -0.034861296 0.066094644 -0.058632407
0001c0 79 eb 41 bc af c8 06 3c ba 8f b0 3d 1c 55 6c 3d
       -0.011835926 0.008226558 0.08621164 0.057698354
0001d0 b1 08 24 bd 85 25 ad 3d 45 5e ed bd 88 e8 82 bb
       -0.04004735 0.08454422 -0.11590246 -0.003995005
0001e0 c1 57 94 3d cf a8 b7 bc 2a 93 86 3a 43 56 37 3d
       0.072433 -0.022419361 0.0010267247 0.04476
0001f0 c2 8c 98 bc 36 93 8c 3d 86 b1 eb bc d9 04 70 bd
       -0.018621806 0.06864016 -0.028771173 -0.058598373
000200 90 2f 68 3d c2 dd 06 bd 76 37 8c 3a 05 1e 63 3c
       0.056685984 -0.03292633 0.0010697681 0.013862138
000210 f7 be 09 3d 4a 0d bd bd fd 0d 4a bc 58 9f 3b 3d
       0.033629384 -0.0923105 -0.012332437 0.04580626
000220 cc 5f 90 bb 51 ee fe 3c e4 a3 c1 bc 23 dc a1 3c
       -0.004405951 0.031119497 -0.02363772 0.01975829
000230 60 56 8a 3c 71 76 f7 bc d9 8f 7d 3b 41 f9 63 bc
       0.01688689 -0.030207844 0.0038690476 -0.013914407
000240 59 09 6f 3d 4d 5c 07 bd bf 70 e3 3d 77 5d 19 3d
       0.058358524 -0.03304701 0.11105489 0.03744265
000250 ee 05 ce 3d 53 ba 18 bd 1f b5 7c bd 2f 02 ee bc
       0.10059725 -0.037287068 -0.061696168 -0.029053776
000260 95 39 67 bd 92 69 3e 3d 2c 0f 9c bd ac 34 8d bd
       -0.0564514 0.0464874 -0.07620081 -0.06894812
000270 3a 2e 2c 3d 21 e6 30 3c 42 4a 42 3c 82 f2 19 3d
       0.042036273 0.0107970545 0.011858525 0.03758479
000280 f8 4d 1b 3d aa 5e 25 3d bb 33 ef bc 37 92 95 3d
       0.037916154 0.04037348 -0.029199472 0.07303279
000290 0b e3 1d 3d e2 4f 86 bc cf 9f 64 3d 36 c0 69 3c
       0.038546603 -0.016395513 0.055816468 0.014267018
0002a0 53 84 2f 3d 37 f8 32 3d 50 b8 90 3d 68 03 41 bd
       0.042850804 0.043693747 0.07066405 -0.04712239
0002b0 3d b6 1a 3d 4c a9 0e 3d 51 d4 44 3d ea e5 f6 3c
       0.037771452 0.034829423 0.048054043 0.030138928
0002c0 69 cb 60 bd aa 94 1a bc b5 f1 bc 3b b3 fc 52 bc
       -0.054881487 -0.009434858 0.0057661184 -0.012877631
0002d0 94 de ef bd ba d4 9f 3d 42 ba db bc 89 c5 30 bb
       -0.11712375 0.07804246 -0.026822213 -0.002697321
0002e0 fa af f5 3c 1b 73 ba 3b cb 1c bd bc b0 6e 04 bd
       0.029991139 0.005689991 -0.023085019 -0.032332122
0002f0 32 30 92 3c 38 94 f2 bb 4f 8e 15 3e 7c e9 06 3d
       0.017845247 -0.007402923 0.14605068 0.03293751
000300 b8 f1 84 3d 30 88 6e 3c 4f 86 75 3d c8 b1 80 bd
       0.06491417 0.014558837 0.05994254 -0.06283909
000310 cf 10 09 bb f0 57 56 bc 06 6e 99 3d 80 26 7c 3d
       -0.002091456 -0.013082489 0.074916884 0.061560154
000320 01 e0 53 bd b1 81 4a bd 28 1c 58 3d 0b 22 da 3d
       -0.0517273 -0.04944009 0.052761227 0.106510244
000330 66 f2 3b bd e3 e8 b3 bc dd 23 6e 3d 02 08 6a bc
       -0.045885466 -0.021961635 0.05813967 -0.014284136
000340 02 ce 9e 3c fb 45 0f 3c b4 07 61 3d 59 c1 9d 3c
       0.019385342 0.008744712 0.054938987 0.019257234
000350 7d ff 41 bd ba fb cf 3d 0c ad cc bc 9b 27 94 3c
       -0.047362793 0.10155435 -0.024984859 0.018085292
000360 9b 26 f5 bc 01 98 1e be 3b 41 17 bd 82 b0 8d 3d
       -0.029925635 -0.15487672 -0.036927443 0.06918432
000370 87 a3 4e bd 15 3a 22 3d 5b a7 d3 bb db 95 a2 bd
       -0.05044892 0.039606173 -0.0064591593 -0.07938739
000380 5e 19 9e bd 06 40 be 3d 37 97 87 bd f5 ac 07 bd
       -0.07719682 0.09289555 -0.06620639 -0.03312393
000390 8a e6 23 bd 61 7b 0c 3b 09 27 41 bd 82 4d af bb
       -0.04001478 0.0021435844 -0.047156367 -0.005349816
0003a0 92 06 3b 3b e2 67 fd bc fa 76 de bc a7 6c 41 3d
       0.0028537852 -0.030933324 -0.027156342 0.04722276
0003b0 34 0a e2 bd 81 cd a8 bc 10 5c 58 bc f8 89 2c bd
       -0.11037102 -0.020605804 -0.013205543 -0.042123765
0003c0 a9 5e a9 bc f8 da 39 bd aa 7f 16 bd da 0a 07 bb
       -0.02067502 -0.04537484 -0.036742844 -0.0020605833
0003d0 5b cb 97 3d 2a 74 e7 3d 53 86 2c bc 63 05 ba bb
       0.07411834 0.113014534 -0.010530072 -0.0056769117
0003e0 07 b4 a2 bc 41 48 ba bd 98 1f d4 bc f6 89 89 3d
       -0.019861234 -0.090958126 -0.025893971 0.06715767
0003f0 bc 63 1c 3e 22 c0 a0 bd 5e 65 3c bc 46 52 ac 3c
       0.1527242 -0.078491464 -0.011498777 0.021035325

network_body.linear_encoder.seq_layers.4.bias f4 [256]
000000 d2 1e 3e 3d 2e a6 30 3c 22 9b 71 3c 53 09 08 bd
       0.04641611 0.010781808 0.014746459 -0.033212017
000010 1b 1a 1d bd f8 b3 23 3d 7e 71 97 3c 3f 81 04 bd
       -0.038354974 0.039966553 0.018486734 -0.03234982
000020 e2 d4 cd bc 46 5e 1a 3c dd 4a b8 ba 79 40 2e 3b
       -0.025125924 0.009421891 -0.0014060397 0.0026588722
000030 da dc 1e 3c 54 b3 db bc 3d 34 d9 bc d0 98 66 bc
       0.00969621 -0.026818909 -0.026514167 -0.014074519
000040 1c 20 eb bc d5 15 da bc db 5d 8a 3b 7c 0d 76 bb
       -0.028701834 -0.026621738 0.004222614 -0.0037544658
000050 d0 a2 eb 3b a5 31 62 3b 0e 51 3f 3c 89 67 ee 3b
       0.0071910396 0.0034514454 0.01167704 0.007275526
000060 a0 23 3b 3b 7c ac 0c 3c 60 17 e2 bc 24 42 eb 3c
       0.002855517 0.008586045 -0.027599037 0.028718062
000070 94 21 fe ba f5 63 8e 3b e0 8e 17 3c 3f 43 4e 3c
       -0.0019388669 0.004345412 0.009250373 0.012589275
000080 b3 4e c5 bc 2c 37 c3 bc 31 aa d9 3b 4e f3 ab bc
       -0.024085378 -0.023830019 0.006642603 -0.02099004
000090 f8 02 be bc bd e0 77 3b a1 6e e5 bc ea 4d 85 3c
       -0.023194775 0.0037823163 -0.028006854 0.016272504
0000a0 85 b3 74 3b 3d 31 c0 3c 5b 92 dd bc 39 eb 62 bc
       0.0037338447 0.023460979 -0.027047327 -0.013850027
0000b0 9a d4 75 ba cc 7f ba bc de be a1 bc 08 e0 23 3d
       -0.00093776884 -0.022766016 -0.019744333 0.040008575
0000c0 8f 73 10 bd 0d 01 d0 3c 9c 98 ba bb 83 34 79 bc
       -0.035266455 0.025391126 -0.005694462 -0.015210274
0000d0 00 18 6e bc c7 e8 74 3d 4e 59 e8 bc 8b 31 06 bb
       -0.014532089 0.059792306 -0.028362896 -0.0020476307
0000e0 e1 22 2e 3b ca 1f d6 bc 34 fc fc bc d6 f8 53 3d
       0.0026571082 -0.026138205 -0.030881979 0.05175098
0000f0 ac 75 ce bb 44 b1 e9 bc 3b 27 6a 3b 62 36 84 bc
       -0.0063006487 -0.02852691 0.003572895 -0.016139213
000100 41 d2 c4 3c 5d c9 ba bc 7e 93 88 3b 0d 2e 48 3d
       0.024026038 -0.022801096 0.004167973 0.048872042
000110 a8 2e 09 bd 34 c2 22 bc 7e be 52 bc 21 ac ec bc
       -0.03349176 -0.009933997 -0.0128628 -0.028890671
000120 01 d5 ec 3c fc 43 c5 bc e6 5a 1e 3d 1b 6c 42 bc
       0.028910162 -0.024080269 0.038660906 -0.011866595
000130 dd 17 0d bd 14 01 07 3c 93 16 29 bd c4 d8 5d 3d
       -0.034446586 0.008240003 -0.041281294 0.054161802
000140 a7 6f ed bc e8 6d c0 bc 3b 0d 34 3c 96 15 16 3c
       -0.028983904 -0.023489907 0.0109894825 0.00916042
000150 92 3e 0c 3c 58 14 69 3d a7 2c 14 bd 03 65 78 3c
       0.00855984 0.056904167 -0.036175396 0.015160802
000160 7a 1c 8b bb f5 72 f0 bc c6 fb d2 bc 96 c2 f3 bc
       -0.004245338 -0.02935169 -0.02575482 -0.029755872
000170 e6 57 6e 3d 66 e4 ff 3c 83 3f 1f 3c 01 a1 21 bd
       0.058189295 0.031236839 0.009719732 -0.039460186
000180 87 d3 15 bd bb fd fe bc 2d e5 ca bc 29 e9 aa bc
       -0.03657868 -0.031126847 -0.024767483 -0.020863133
000190 68 97 99 bb 3d 97 6c 3c 3b d8 42 3d e3 d4 00 bd
       -0.0046872385 0.014440355 0.047569495 -0.031453025
0001a0 43 c0 f2 bc 72 04 0a 3c bd 04 5a bc e8 37 68 3b
       -0.029632693 0.008423911 -0.013306794 0.0035433713
0001b0 e9 3a ac 3b ec 73 15 bd 73 80 c8 bc 5f 50 ca bb
       0.005256046 -0.036487505 -0.024475312 -0.0061741318
0001c0 08 9d 9d bc 80 0a 05 3d 6a 56 dc bc 0a 42 d2 3c
       -0.019239917 0.032480717 -0.026896674 0.025666256
0001d0 82 27 e5 bc 01 63 c7 bc 6b 28 f2 bc 2d 47 d8 3c
       -0.02797294 -0.0243392 -0.029560288 0.026401127
0001e0 52 e7 5a bc ef 35 d3 3c ff 57 b8 3c 15 12 17 3b
       -0.013360815 0.025782553 0.022502897 0.002305155
0001f0 02 03 b1 3c db ff 01 bd 38 8a c5 bc 62 6f 13 bd
       0.02160788 -0.031738143 -0.02411376 -0.035994895
000200 b1 b3 d8 bc dc 0e 55 bc 3e 78 db 3c d6 36 2e bc
       -0.026452871 -0.013004031 0.026790734 -0.010633191
000210 34 99 c8 3c d5 59 0c 3c 7c 01 95 3c 95 b4 11 3d
       0.024487115 0.0085663395 0.018189184 0.035572607
000220 13 5a c8 bc fb 35 04 bd 03 df 06 bd d8 1b c6 3c
       -0.024457013 -0.032278042 -0.032927524 0.024183199
000230 10 0a ff bc f0 1e 12 bd c4 3f 26 3c c8 19 92 3b
       -0.031132728 -0.035674036 0.010147039 0.00445864
000240 6d 17 99 3c f9 0b 2d bb 3d f0 b4 3c e1 0c 57 ba
       0.018687928 -0.0026404841 0.02208721 -0.0008203518
000250 0c 24 ea bc 2e 64 6c 3b 01 61 02 3c 0c 42 9b 3c
       -0.028581642 0.0036070454 0.007957698 0.018952392
000260 7f 3a f9 bc 6b 4e 05 3c 95 38 57 3d 95 6f aa bc
       -0.0304234 0.008136372 0.052544195 -0.02080516
000270 10 d1 be bc df 0c 9c bc 96 fe c6 bc 35 ab f5 bc
       -0.023293048 -0.019049106 -0.024291318 -0.029988864
000280 95 97 cb 3a 11 48 e6 bc 1d ca f2 bc c1 b4 d6 3b
       0.0015532846 -0.028110536 -0.02963739 0.0065523093
000290 73 40 b4 bb b8 c5 0e 3d 7b 17 90 bc 03 ec 41 3d
       -0.005500847 0.034856528 -0.017589321 0.04734422
0002a0 2c 43 21 3c 7f 0b d8 bc 73 19 52 3b fd 64 ea bc
       0.009842675 -0.02637267 0.0032058626 -0.028612608
0002b0 a1 97 60 3c 97 68 be 3b 86 1b 2e bd 99 67 cc 3b
       0.013708026 0.005810808 -0.042506717 0.0062379357
0002c0 cb 14 fa 3b 8c ba 0f bd 59 68 b3 bc 11 7f 00 bd
       0.0076318732 -0.035090014 -0.021900343 -0.03137118
0002d0 74 f4 d1 bc 0c bf 19 bd 81 e9 e2 bc 09 02 4d 3c
       -0.02562926 -0.037535712 -0.027699234 0.012512692
0002e0 5d 6d 0f bd 66 57 d1 bc 08 eb 01 bd 45 f6 1d bd
       -0.035016406 -0.02555437 -0.031718284 -0.03856494
0002f0 96 d1 17 3d 01 e0 e2 bc 0a 6d ae 3c 81 f5 16 bd
       0.03706511 -0.027694704 0.021292228 -0.036855225
000300 89 25 63 bc 33 76 9d 3b 8d 5d 9b bc 54 70 0f bd
       -0.01386393 0.00480535 -0.018965507 -0.035019234
000310 ce 18 27 bc 4d 21 b8 bc 16 cc 1b 3c 81 49 b7 bc
       -0.010198785 -0.022476817 0.009509107 -0.022373917
000320 c8 d1 e8 bc 56 67 a9 bc de a2 dd bc 49 d8 f5 bc
       -0.028420344 -0.020679157 -0.0270552 -0.03001036
000330 c9 dc 16 bd 99 d8 2b bc eb f2 11 bd ed 6e 18 3d
       -0.03683165 -0.010488653 -0.035632055 0.037215162
000340 54 68 e4 bc a9 72 0d 3c 67 5b f3 bc 04 92 de bc
       -0.027881779 0.008633294 -0.02970667 -0.027169235
000350 0b ab 93 3c 92 de af 3b 61 3e 0f 3d 0f 62 cd bc
       0.018025896 0.0053671086 0.0349716 -0.025071172
000360 e0 b9 10 3c 2d 53 06 bd 4a 91 a8 3b e6 64 67 3c
       0.008833379 -0.032794166 0.005144273 0.014123177
000370 6d 1d 23 bc 81 c1 21 bd c4 87 fe bc eb 81 b7 bb
       -0.009955746 -0.03949118 -0.031070597 -0.005600204
000380 d4 28 3f 3b 62 df 1d bc be 42 88 3b 0e ba 1e 3c
       0.0029168623 -0.009635778 0.004158347 0.009687914
000390 68 5d 1a bd a4 e4 a9 3c e1 37 b3 3b 3e bc 38 3c
       -0.037686735 0.020738907 0.005469308 0.011275349
0003a0 9c 95 dd 3b 90 70 1a 3c 77 ba 9b bc ce f9 b3 bc
       0.0067622196 0.009426251 -0.019009812 -0.021969702
0003b0 5a 68 13 bd 90 bb 80 bc ec 7a cb 3b ae d6 f6 bc
       -0.03598819 -0.015714437 0.006209722 -0.030131664
0003c0 80 ed 03 3d 7b 1a 11 bd ab dd bb ba ea ad 1d 3c
       0.03220892 -0.035425644 -0.001433303 0.009623984
0003d0 aa 95 2c bd c7 5b 7d 3b ee 59 87 bc cf a7 63 3c
       -0.04213492 0.003865944 -0.016522374 0.013894989
0003e0 e7 e9 ac bc c6 bf ea bc 04 68 89 bc 23 23 46 3c
       -0.021107627 -0.028655898 -0.016773231 0.012093338
0003f0 16 a5 66 3d 6e ea 1c 3d 6e d3 c8 bc c4 71 a8 3b
       0.056309782 0.038309507 -0.02451488 0.005140515
